Neural Network Tools for STM32AI v1.6.0 (STM.ai v7.3.0-RC5)
Created date          : 2023-02-08 14:39:35
Parameters            : generate --name wdcnn -m F:/Undergraduate/FYP/Project/ResNet-18/TF/WDCNNQuant_v1.tflite --type tflite --compression none --verbosity 1 --workspace C:\Users\Temple\AppData\Local\Temp\mxAI_workspace58829411571500012419197511804821660 --output C:\Users\Temple\.stm32cubemx\network_output --allocate-inputs --allocate-outputs

Exec/report summary (generate)
------------------------------------------------------------------------------------------------------------
model file         :   F:\Undergraduate\FYP\Project\ResNet-18\TF\WDCNNQuant_v1.tflite                      
type               :   tflite                                                                              
c_name             :   wdcnn                                                                               
compression        :   none                                                                                
options            :   allocate-inputs, allocate-outputs                                                   
optimization       :   balanced                                                                            
target/series      :   generic                                                                             
workspace dir      :   C:\Users\Temple\AppData\Local\Temp\mxAI_workspace58829411571500012419197511804821660
output dir         :   C:\Users\Temple\.stm32cubemx\network_output                                         
model_fmt          :   ss/sa per-channel                                                                   
model_name         :   WDCNNQuant_v1                                                                       
model_hash         :   b56a33e2df0c17f14a1808839d7cc065                                                    
params #           :   53,830 items (53.59 KiB)                                                            
------------------------------------------------------------------------------------------------------------
input 1/1          :   'input_1' (domain:activations/**default**)                                          
                   :   1024 items, 4.00 KiB, ai_float, float, (1,1024,1,1)                                 
output 1/1         :   'nl_33' (domain:activations/**default**)                                            
                   :   10 items, 40 B, ai_float, float, (1,1,1,10)                                         
macc               :   726,640                                                                             
weights (ro)       :   54,880 B (53.59 KiB) (1 segment) / -160,440(-74.5%) vs float model                  
activations (rw)   :   9,280 B (9.06 KiB) (1 segment) *                                                    
ram (total)        :   9,280 B (9.06 KiB) = 9,280 + 0 + 0                                                  
------------------------------------------------------------------------------------------------------------
(*) 'input'/'output' buffers can be used from the activations buffer

Model name - WDCNNQuant_v1 ['input_1'] ['nl_33']
--------------------------------------------------------------------------------------------------------------------------------------------------------------------------------
id   layer (type,original)                      oshape                 param/size      macc      connected to   |   c_size   c_macc            c_type                          
--------------------------------------------------------------------------------------------------------------------------------------------------------------------------------
0    input_1 (Input, )                          [b:1,h:1024,c:1]                                                |            +2,048(+100.0%)   converter_oi8[0]                
     conversion_0 (Conversion, QUANTIZE)        [b:1,h:1024,c:1]                       2,048     input_1        |            -2,048(-100.0%)  
--------------------------------------------------------------------------------------------------------------------------------------------------------------------------------
1    reshape_1 (Reshape, EXPAND_DIMS)           [b:1,h:1,w:1024,c:1]                             conversion_0   |                             
--------------------------------------------------------------------------------------------------------------------------------------------------------------------------------
2    conv2d_2 (Conv2D, CONV_2D)                 [b:1,h:1,w:128,c:16]   1,040/1,088     131,088   reshape_1      |                              conv2d_oi8[1]                   
     nl_2_nl (Nonlinearity, CONV_2D)            [b:1,h:1,w:128,c:16]                   2,048     conv2d_2       |            -2,048(-100.0%)  
--------------------------------------------------------------------------------------------------------------------------------------------------------------------------------
3    reshape_3 (Reshape, RESHAPE)               [b:1,h:128,c:16]                                 nl_2_nl        |                             
--------------------------------------------------------------------------------------------------------------------------------------------------------------------------------
4    reshape_4 (Reshape, EXPAND_DIMS)           [b:1,h:128,w:1,c:16]                             reshape_3      |                             
--------------------------------------------------------------------------------------------------------------------------------------------------------------------------------
5    pool_5 (Pool, MAX_POOL_2D)                 [b:1,h:64,w:1,c:16]                    2,048     reshape_4      |                              pool_oi8[2]                     
--------------------------------------------------------------------------------------------------------------------------------------------------------------------------------
6    reshape_6 (Reshape, RESHAPE)               [b:1,h:64,c:16]                                  pool_5         |                             
--------------------------------------------------------------------------------------------------------------------------------------------------------------------------------
7    reshape_7 (Reshape, EXPAND_DIMS)           [b:1,h:1,w:64,c:16]                              reshape_6      |                             
--------------------------------------------------------------------------------------------------------------------------------------------------------------------------------
8    conv2d_8 (Conv2D, CONV_2D)                 [b:1,h:1,w:64,c:32]    1,568/1,664     98,336    reshape_7      |                              pad_oi8/conv2d_oi8[3, 4]        
     nl_8_nl (Nonlinearity, CONV_2D)            [b:1,h:1,w:64,c:32]                    2,048     conv2d_8       |            -2,048(-100.0%)  
--------------------------------------------------------------------------------------------------------------------------------------------------------------------------------
9    reshape_9 (Reshape, RESHAPE)               [b:1,h:64,c:32]                                  nl_8_nl        |                             
--------------------------------------------------------------------------------------------------------------------------------------------------------------------------------
10   reshape_10 (Reshape, EXPAND_DIMS)          [b:1,h:64,w:1,c:32]                              reshape_9      |                             
--------------------------------------------------------------------------------------------------------------------------------------------------------------------------------
11   pool_11 (Pool, MAX_POOL_2D)                [b:1,h:32,w:1,c:32]                    2,048     reshape_10     |                              pool_oi8[5]                     
--------------------------------------------------------------------------------------------------------------------------------------------------------------------------------
12   reshape_12 (Reshape, RESHAPE)              [b:1,h:32,c:32]                                  pool_11        |                             
--------------------------------------------------------------------------------------------------------------------------------------------------------------------------------
13   reshape_13 (Reshape, EXPAND_DIMS)          [b:1,h:1,w:32,c:32]                              reshape_12     |                             
--------------------------------------------------------------------------------------------------------------------------------------------------------------------------------
14   conv2d_14 (Conv2D, CONV_2D)                [b:1,h:1,w:32,c:64]    6,208/6,400     196,672   reshape_13     |                              pad_oi8/conv2d_oi8[6, 7]        
     nl_14_nl (Nonlinearity, CONV_2D)           [b:1,h:1,w:32,c:64]                    2,048     conv2d_14      |            -2,048(-100.0%)  
--------------------------------------------------------------------------------------------------------------------------------------------------------------------------------
15   reshape_15 (Reshape, RESHAPE)              [b:1,h:32,c:64]                                  nl_14_nl       |                             
--------------------------------------------------------------------------------------------------------------------------------------------------------------------------------
16   reshape_16 (Reshape, EXPAND_DIMS)          [b:1,h:32,w:1,c:64]                              reshape_15     |                             
--------------------------------------------------------------------------------------------------------------------------------------------------------------------------------
17   pool_17 (Pool, MAX_POOL_2D)                [b:1,h:16,w:1,c:64]                    2,048     reshape_16     |                              pool_oi8[8]                     
--------------------------------------------------------------------------------------------------------------------------------------------------------------------------------
18   reshape_18 (Reshape, RESHAPE)              [b:1,h:16,c:64]                                  pool_17        |                             
--------------------------------------------------------------------------------------------------------------------------------------------------------------------------------
19   reshape_19 (Reshape, EXPAND_DIMS)          [b:1,h:1,w:16,c:64]                              reshape_18     |                             
--------------------------------------------------------------------------------------------------------------------------------------------------------------------------------
20   conv2d_20 (Conv2D, CONV_2D)                [b:1,h:1,w:16,c:64]    12,352/12,544   196,672   reshape_19     |                              pad_oi8/conv2d_oi8[9, 10]       
     nl_20_nl (Nonlinearity, CONV_2D)           [b:1,h:1,w:16,c:64]                    1,024     conv2d_20      |            -1,024(-100.0%)  
--------------------------------------------------------------------------------------------------------------------------------------------------------------------------------
21   reshape_21 (Reshape, RESHAPE)              [b:1,h:16,c:64]                                  nl_20_nl       |                             
--------------------------------------------------------------------------------------------------------------------------------------------------------------------------------
22   reshape_22 (Reshape, EXPAND_DIMS)          [b:1,h:16,w:1,c:64]                              reshape_21     |                             
--------------------------------------------------------------------------------------------------------------------------------------------------------------------------------
23   pool_23 (Pool, MAX_POOL_2D)                [b:1,h:8,w:1,c:64]                     1,024     reshape_22     |                              pool_oi8[11]                    
--------------------------------------------------------------------------------------------------------------------------------------------------------------------------------
24   reshape_24 (Reshape, RESHAPE)              [b:1,h:8,c:64]                                   pool_23        |                             
--------------------------------------------------------------------------------------------------------------------------------------------------------------------------------
25   reshape_25 (Reshape, EXPAND_DIMS)          [b:1,h:1,w:8,c:64]                               reshape_24     |                             
--------------------------------------------------------------------------------------------------------------------------------------------------------------------------------
26   conv2d_26 (Conv2D, CONV_2D)                [b:1,h:1,w:6,c:64]     12,352/12,544   73,792    reshape_25     |                              conv2d_oi8[12]                  
     nl_26_nl (Nonlinearity, CONV_2D)           [b:1,h:1,w:6,c:64]                     384       conv2d_26      |            -384(-100.0%)    
--------------------------------------------------------------------------------------------------------------------------------------------------------------------------------
27   reshape_27 (Reshape, RESHAPE)              [b:1,h:6,c:64]                                   nl_26_nl       |                             
--------------------------------------------------------------------------------------------------------------------------------------------------------------------------------
28   reshape_28 (Reshape, EXPAND_DIMS)          [b:1,h:6,w:1,c:64]                               reshape_27     |                             
--------------------------------------------------------------------------------------------------------------------------------------------------------------------------------
29   pool_29 (Pool, MAX_POOL_2D)                [b:1,h:3,w:1,c:64]                     384       reshape_28     |                              pool_oi8[13]                    
--------------------------------------------------------------------------------------------------------------------------------------------------------------------------------
30   reshape_30 (Reshape, RESHAPE)              [b:1,c:192]                                      pool_29        |                             
--------------------------------------------------------------------------------------------------------------------------------------------------------------------------------
31   dense_31 (Dense, FULLY_CONNECTED)          [b:1,c:100]            19,300/19,600   19,300    reshape_30     |                              dense_oi8[14]                   
     nl_31_nl (Nonlinearity, FULLY_CONNECTED)   [b:1,c:100]                            100       dense_31       |            -100(-100.0%)    
--------------------------------------------------------------------------------------------------------------------------------------------------------------------------------
32   dense_32 (Dense, FULLY_CONNECTED)          [b:1,c:10]             1,010/1,040     1,010     nl_31_nl       |            +20(+2.0%)        dense_oi8/converter_of32[15, 16]
--------------------------------------------------------------------------------------------------------------------------------------------------------------------------------
33   nl_33 (Nonlinearity, SOFTMAX)              [b:1,c:10]                             150       dense_32       |                              nl_of32[o][17]                  
--------------------------------------------------------------------------------------------------------------------------------------------------------------------------------
34   conversion_34 (Conversion, DEQUANTIZE)     [b:1,c:10]                             20        nl_33          |            -20(-100.0%)     
--------------------------------------------------------------------------------------------------------------------------------------------------------------------------------
model/c-model: macc=734,292/726,640 -7,652(-1.0%) weights=54,880/54,880  activations=--/9,280 io=--/0



Generated C-graph summary
------------------------------------------------------------------------------------------------------------------------
model name            : wdcnnquant_v1
c-name                : wdcnn
c-node #              : 18
c-array #             : 40
activations size      : 9280 (1 segment)
weights size          : 54880 (1 segment)
macc                  : 726640
inputs                : ['input_1_output']
outputs               : ['nl_33_output']

C-Arrays (40)
--------------------------------------------------------------------------------------------------------------------
c_id   name (*_array)                 item/size     domain/mem-pool           c-type          fmt           comment
--------------------------------------------------------------------------------------------------------------------
0      input_1_output                 1024/4096     activations/**default**   float           float32       /input 
1      conv2d_20_scratch0             6528/6528     activations/**default**   int8_t          s8                   
2      conversion_0_output            1024/1024     activations/**default**   int8_t          sa8                  
3      conv2d_2_output                2048/2048     activations/**default**   int8_t          sa8                  
4      conv2d_26_scratch0             6528/6528     activations/**default**   int8_t          s8                   
5      pool_5_output                  1024/1024     activations/**default**   int8_t          sa8                  
6      conv2d_8_pad_before_output     1056/1056     activations/**default**   int8_t          sa8                  
7      conv2d_8_output                2048/2048     activations/**default**   int8_t          sa8                  
8      dense_31_scratch0              192/384       activations/**default**   int16_t         s16                  
9      pool_11_output                 1024/1024     activations/**default**   int8_t          sa8                  
10     conv2d_14_pad_before_output    1088/1088     activations/**default**   int8_t          sa8                  
11     dense_32_scratch0              100/200       activations/**default**   int16_t         s16                  
12     conv2d_14_output               2048/2048     activations/**default**   int8_t          sa8                  
13     pool_17_output                 1024/1024     activations/**default**   int8_t          sa8                  
14     conv2d_20_pad_before_output    1152/1152     activations/**default**   int8_t          sa8                  
15     conv2d_20_output               1024/1024     activations/**default**   int8_t          sa8                  
16     pool_23_output                 512/512       activations/**default**   int8_t          sa8                  
17     conv2d_26_output               384/384       activations/**default**   int8_t          sa8                  
18     pool_29_output                 192/192       activations/**default**   int8_t          sa8                  
19     dense_31_output                100/100       activations/**default**   int8_t          sa8                  
20     dense_32_output                10/10         activations/**default**   int8_t          sa8                  
21     dense_32_0_conversion_output   10/40         activations/**default**   float           float32              
22     nl_33_output                   10/40         activations/**default**   float           float32       /output
23     conv2d_2_weights               1024/1024     weights/weights           const int8_t    ss8/ch(16)           
24     conv2d_2_bias                  16/64         weights/weights           const int32_t   ss32/ch(16)          
25     conv2d_8_weights               1536/1536     weights/weights           const int8_t    ss8/ch(32)           
26     conv2d_8_bias                  32/128        weights/weights           const int32_t   ss32/ch(32)          
27     conv2d_14_weights              6144/6144     weights/weights           const int8_t    ss8/ch(64)           
28     conv2d_14_bias                 64/256        weights/weights           const int32_t   ss32/ch(64)          
29     conv2d_20_weights              12288/12288   weights/weights           const int8_t    ss8/ch(64)           
30     conv2d_20_bias                 64/256        weights/weights           const int32_t   ss32/ch(64)          
31     conv2d_26_weights              12288/12288   weights/weights           const int8_t    ss8/ch(64)           
32     conv2d_26_bias                 64/256        weights/weights           const int32_t   ss32/ch(64)          
33     dense_31_weights               19200/19200   weights/weights           const int8_t    ss8                  
34     dense_31_bias                  100/400       weights/weights           const int32_t   ss32                 
35     dense_32_weights               1000/1000     weights/weights           const int8_t    ss8                  
36     dense_32_bias                  10/40         weights/weights           const int32_t   ss32                 
37     conv2d_2_scratch0              2464/2464     activations/**default**   int8_t          s8                   
38     conv2d_8_scratch0              3584/3584     activations/**default**   int8_t          s8                   
39     conv2d_14_scratch0             6144/6144     activations/**default**   int8_t          s8                   
--------------------------------------------------------------------------------------------------------------------

C-Layers (18)
-----------------------------------------------------------------------------------------------------------------------
c_id   name (*_layer)          id   layer_type   macc     rom     tensors                           shape (array id)  
-----------------------------------------------------------------------------------------------------------------------
0      conversion_0            0    converter    2048     0       I: input_1_output                 (1,1024,1,1) (0)  
                                                                  O: conversion_0_output            (1,1024,1,1) (2)  
-----------------------------------------------------------------------------------------------------------------------
1      conv2d_2                2    conv2d       131088   1088    I: conversion_0_output0           (1,1,1024,1) (2)  
                                                                  S: conv2d_2_scratch0                                
                                                                  W: conv2d_2_weights               (1,16,1,64) (23)  
                                                                  W: conv2d_2_bias                  (1,1,1,16) (24)   
                                                                  O: conv2d_2_output                (1,1,128,16) (3)  
-----------------------------------------------------------------------------------------------------------------------
2      pool_5                  5    pool         2048     0       I: conv2d_2_output0               (1,128,1,16) (3)  
                                                                  O: pool_5_output                  (1,64,1,16) (5)   
-----------------------------------------------------------------------------------------------------------------------
3      conv2d_8_pad_before     8    pad          0        0       I: pool_5_output0                 (1,1,64,16) (5)   
                                                                  O: conv2d_8_pad_before_output     (1,1,66,16) (6)   
-----------------------------------------------------------------------------------------------------------------------
4      conv2d_8                8    conv2d       98336    1664    I: conv2d_8_pad_before_output     (1,1,66,16) (6)   
                                                                  S: conv2d_8_scratch0                                
                                                                  W: conv2d_8_weights               (16,32,1,3) (25)  
                                                                  W: conv2d_8_bias                  (1,1,1,32) (26)   
                                                                  O: conv2d_8_output                (1,1,64,32) (7)   
-----------------------------------------------------------------------------------------------------------------------
5      pool_11                 11   pool         2048     0       I: conv2d_8_output0               (1,64,1,32) (7)   
                                                                  O: pool_11_output                 (1,32,1,32) (9)   
-----------------------------------------------------------------------------------------------------------------------
6      conv2d_14_pad_before    14   pad          0        0       I: pool_11_output0                (1,1,32,32) (9)   
                                                                  O: conv2d_14_pad_before_output    (1,1,34,32) (10)  
-----------------------------------------------------------------------------------------------------------------------
7      conv2d_14               14   conv2d       196672   6400    I: conv2d_14_pad_before_output    (1,1,34,32) (10)  
                                                                  S: conv2d_14_scratch0                               
                                                                  W: conv2d_14_weights              (32,64,1,3) (27)  
                                                                  W: conv2d_14_bias                 (1,1,1,64) (28)   
                                                                  O: conv2d_14_output               (1,1,32,64) (12)  
-----------------------------------------------------------------------------------------------------------------------
8      pool_17                 17   pool         2048     0       I: conv2d_14_output0              (1,32,1,64) (12)  
                                                                  O: pool_17_output                 (1,16,1,64) (13)  
-----------------------------------------------------------------------------------------------------------------------
9      conv2d_20_pad_before    20   pad          0        0       I: pool_17_output0                (1,1,16,64) (13)  
                                                                  O: conv2d_20_pad_before_output    (1,1,18,64) (14)  
-----------------------------------------------------------------------------------------------------------------------
10     conv2d_20               20   conv2d       196672   12544   I: conv2d_20_pad_before_output    (1,1,18,64) (14)  
                                                                  S: conv2d_20_scratch0                               
                                                                  W: conv2d_20_weights              (64,64,1,3) (29)  
                                                                  W: conv2d_20_bias                 (1,1,1,64) (30)   
                                                                  O: conv2d_20_output               (1,1,16,64) (15)  
-----------------------------------------------------------------------------------------------------------------------
11     pool_23                 23   pool         1024     0       I: conv2d_20_output0              (1,16,1,64) (15)  
                                                                  O: pool_23_output                 (1,8,1,64) (16)   
-----------------------------------------------------------------------------------------------------------------------
12     conv2d_26               26   conv2d       73792    12544   I: pool_23_output0                (1,1,8,64) (16)   
                                                                  S: conv2d_26_scratch0                               
                                                                  W: conv2d_26_weights              (64,64,1,3) (31)  
                                                                  W: conv2d_26_bias                 (1,1,1,64) (32)   
                                                                  O: conv2d_26_output               (1,1,6,64) (17)   
-----------------------------------------------------------------------------------------------------------------------
13     pool_29                 29   pool         384      0       I: conv2d_26_output0              (1,6,1,64) (17)   
                                                                  O: pool_29_output                 (1,3,1,64) (18)   
-----------------------------------------------------------------------------------------------------------------------
14     dense_31                31   dense        19300    19600   I: pool_29_output0                (1,1,1,192) (18)  
                                                                  S: dense_31_scratch0                                
                                                                  W: dense_31_weights               (192,1,1,100) (33)
                                                                  W: dense_31_bias                  (1,1,1,100) (34)  
                                                                  O: dense_31_output                (1,1,1,100) (19)  
-----------------------------------------------------------------------------------------------------------------------
15     dense_32                32   dense        1010     1040    I: dense_31_output                (1,1,1,100) (19)  
                                                                  S: dense_32_scratch0                                
                                                                  W: dense_32_weights               (100,1,1,10) (35) 
                                                                  W: dense_32_bias                  (1,1,1,10) (36)   
                                                                  O: dense_32_output                (1,1,1,10) (20)   
-----------------------------------------------------------------------------------------------------------------------
16     dense_32_0_conversion   32   converter    20       0       I: dense_32_output                (1,1,1,10) (20)   
                                                                  O: dense_32_0_conversion_output   (1,1,1,10) (21)   
-----------------------------------------------------------------------------------------------------------------------
17     nl_33                   33   nl           150      0       I: dense_32_0_conversion_output   (1,1,1,10) (21)   
                                                                  O: nl_33_output                   (1,1,1,10) (22)   
-----------------------------------------------------------------------------------------------------------------------



Number of operations per c-layer
-----------------------------------------------------------------------------------------------------------
c_id    m_id   name (type)                         #op (type)                      #param (sparsity)      
-----------------------------------------------------------------------------------------------------------
0       0      conversion_0 (converter)                      2,048 (smul_f32_s8)                          
1       2      conv2d_2 (conv2d)                           131,088 (smul_s8_s8)             1,040 (0.0058)
2       5      pool_5 (pool)                                 2,048 (op_s8_s8)                             
3       8      conv2d_8_pad_before (pad)                         0 (smul_s8_s8)                           
4       8      conv2d_8 (conv2d)                            98,336 (smul_s8_s8)             1,568 (0.0045)
5       11     pool_11 (pool)                                2,048 (op_s8_s8)                             
6       14     conv2d_14_pad_before (pad)                        0 (smul_s8_s8)                           
7       14     conv2d_14 (conv2d)                          196,672 (smul_s8_s8)             6,208 (0.0089)
8       17     pool_17 (pool)                                2,048 (op_s8_s8)                             
9       20     conv2d_20_pad_before (pad)                        0 (smul_s8_s8)                           
10      20     conv2d_20 (conv2d)                          196,672 (smul_s8_s8)            12,352 (0.0085)
11      23     pool_23 (pool)                                1,024 (op_s8_s8)                             
12      26     conv2d_26 (conv2d)                           73,792 (smul_s8_s8)            12,352 (0.0080)
13      29     pool_29 (pool)                                  384 (op_s8_s8)                             
14      31     dense_31 (dense)                             19,300 (smul_s8_s8)            19,300 (0.0211)
15      32     dense_32 (dense)                              1,010 (smul_s8_s8)             1,010 (0.0030)
16      32     dense_32_0_conversion (converter)                20 (smul_s8_f32)                          
17      33     nl_33 (nl)                                      150 (op_f32_f32)                           
-----------------------------------------------------------------------------------------------------------
total                                                      726,640                         53,830 (0.0127)

  Number of operation types
  ---------------------------------------------
  smul_f32_s8                2,048        0.3%
  smul_s8_s8               716,870       98.7%
  op_s8_s8                   7,552        1.0%
  smul_s8_f32                   20        0.0%
  op_f32_f32                   150        0.0%

Complexity report (model)
--------------------------------------------------------------------------------
m_id   name        c_macc                    c_rom                     c_id    
--------------------------------------------------------------------------------
0      input_1     |                  0.3%   |                  0.0%   [0]     
2      conv2d_2    ||||||||||        18.0%   |                  2.0%   [1]     
5      pool_5      |                  0.3%   |                  0.0%   [2]     
8      conv2d_8    ||||||||          13.5%   ||                 3.0%   [3, 4]  
11     pool_11     |                  0.3%   |                  0.0%   [5]     
14     conv2d_14   ||||||||||||||||  27.1%   |||||             11.7%   [6, 7]  
17     pool_17     |                  0.3%   |                  0.0%   [8]     
20     conv2d_20   ||||||||||||||||  27.1%   ||||||||||        22.9%   [9, 10] 
23     pool_23     |                  0.1%   |                  0.0%   [11]    
26     conv2d_26   ||||||            10.2%   ||||||||||        22.9%   [12]    
29     pool_29     |                  0.1%   |                  0.0%   [13]    
31     dense_31    ||                 2.7%   ||||||||||||||||  35.7%   [14]    
32     dense_32    |                  0.1%   |                  1.9%   [15, 16]
33     nl_33       |                  0.0%   |                  0.0%   [17]    
--------------------------------------------------------------------------------
macc=726,640 weights=54,880 act=9,280 ram_io=0

Generated files (7)
-------------------------------------------------------------------------
C:\Users\Temple\.stm32cubemx\network_output\wdcnn_config.h
C:\Users\Temple\.stm32cubemx\network_output\wdcnn.h
C:\Users\Temple\.stm32cubemx\network_output\wdcnn.c
C:\Users\Temple\.stm32cubemx\network_output\wdcnn_data_params.h
C:\Users\Temple\.stm32cubemx\network_output\wdcnn_data_params.c
C:\Users\Temple\.stm32cubemx\network_output\wdcnn_data.h
C:\Users\Temple\.stm32cubemx\network_output\wdcnn_data.c
